mnist_best_model.pt (torch, 113343 bytes, 8 tensors)

model.0.weight f4 [8, 1, 3, 3]
-0.21120378 -0.5080781 -0.496513 0.27216238 -0.21116453 0.077670425 0.16194572 0.5386553
0.34878257 0.18674517 0.2739187 -0.15619417 0.40790597 -0.13536559 -0.37753215 0.13655874
-0.13018617 -0.23794422 0.51774037 0.40493912 0.14752118 -0.26302302 0.021720126 0.0031694989
-0.46718273 -0.33003923 -0.038412113 0.29482186 -0.107631736 0.3291787 0.20342736 0.41539
0.30237177 -0.5126959 -0.6054644 -0.61948603 0.12441053 0.05519211 0.26948744 0.032202337
0.46278316 -0.14529006 0.32334825 -0.0177223 -0.41696978 0.19831666 -0.38606077 -0.296338
-0.36608496 -0.18927768 -0.4226977 -0.5397613 0.017454218 -0.37453744 0.25704265 0.21249576
-0.08951336 -0.14689392 0.33993527 0.26128015 -0.39142814 0.18751594 0.2335781 0.35919183
-0.2525365 -0.42207497 0.22048439 0.1088809 -0.41958556 0.0944243 0.29851532 -0.31168827
00000000: ce45 58be 6811 02bf f436 febe de58 8b3e
00000010: 843b 58be ac11 9f3d 19d5 253e 50e5 093f
00000020: a193 b23e 203a 3f3e 123f 8c3e 5df1 1fbe
00000030: 0dd9 d03e 479d 0abe e54b c1be 0ed6 0b3e
00000040: 864f 05be a6a7 73be a28a 043f 2e54 cf3e
00000050: cb0f 173e f4aa 86be 68ee b13c 5eb7 4f3b
00000060: 9332 efbe e7fa a8be 0556 1dbd e4f2 963e
00000070: 076e dcbd 1c8a a83e 434f 503e 00ae d43e
00000080: 79d0 9a3e 0a40 03bf b7ff 1abf a396 1ebf
00000090: f3ca fe3d 1f11 623d 42fa 893e 99e6 033d
000000a0: eaf1 ec3e ebc6 14be e78d a53e 5b2e 91bc
000000b0: 107d d5be 8613 4b3e c2a9 c5be 9db9 97be
000000c0: 7d6f bbbe 02d2 41be d56b d8be cc2d 0abf
000000d0: 26fc 8e3c 5fc3 bfbe 189b 833e 7d98 593e
000000e0: c852 b7bd 5c6b 16be ff0b ae3e 83c6 853e
000000f0: 4569 c8be 2e04 403e 192f 6f3e fee7 b73e
00000100: 774c 81be 361a d8be a9c6 613e f3fc de3d
00000110: ebd3 d6be 8761 c13d 00d7 983e 9b95 9fbe

model.0.bias f4 [8]
-0.018032243 -0.17074385 -0.020996246 -0.12630512 -0.3629005 0.2723479 -0.70423996 -0.1072707
00000000: 5bb8 93bc 7ad7 2ebe 5200 acbc 2156 01be
00000010: 18ce b9be 2f71 8b3e 1249 34bf beb0 dbbd

model.4.weight f4 [16, 8, 3, 3]
-0.02871754 0.020814866 -0.080899045 -0.337249 -0.22819817 -0.37597743 -0.16971399 0.25230026
0.17063664 0.20594425 0.11789034 0.12263556 -0.08547776 0.07988786 0.22298536 -0.39340353
-0.25276348 -0.25316727 -0.080086514 -0.1719728 0.042685915 0.12168706 0.13912493 0.084094025
-0.17484376 0.007765701 -0.17501095 0.009023751 -0.10910968 0.15902887 0.17903069 0.10128298
0.21143724 -0.24629766 -0.11595781 -0.32265052 0.0801781 0.079036355 0.17985079 -0.10997794
-0.0071430714 0.109721616 -0.29520002 -0.48668203 -0.26952434 -0.03690414 -0.03153859 -0.0323067
0.03872733 0.025805335 -0.0056473203 0.021034453 0.034064446 0.009450151 0.1680399 0.023888476
-0.014136097 0.084813476 -0.118439786 -0.22247325 -0.46634862 -0.28277496 -0.20460889 0.23338592
0.05031892 -0.11151018 0.021251949 -0.109665744 -0.06826736 -0.2943062 -0.31725737 -0.085067384
-0.23603985 -0.040197965 0.13034002 -0.25957936 0.022737527 0.038003493 -0.0893961 -0.016286524
-0.08059249 0.30494246 -0.012915586 -0.10380371 0.0052024447 -0.1668973 -0.072331145 -0.05833279
-0.2117197 0.14357527 -0.001367126 -0.13280341 -0.43842193 0.05934695 -0.13946559 -0.2747875
-0.168287 -0.22190182 -0.18898548 0.10943558 -0.30481818 -0.5395637 -0.03773504 -0.4176978
-0.17830707 -0.13471985 -0.34017158 -0.2115266 0.120017506 -0.24434733 0.050218042 -0.05498824
-0.12945925 0.19877832 -0.19134739 -0.092983775 0.23447005 0.111556 0.08346399 -0.0629348
0.057268187 -0.030420236 -0.16171616 0.03922089 0.0041101533 -0.17042826 -0.19521569 -0.110310934
0.10162658 -0.30587757 0.042400252 0.13891515 -0.22254984 0.21000469 0.23851897 0.22360817
-0.10191845 -0.20170918 0.045772422 -0.14189462 -0.12884133 0.054188523 -0.27168298 0.055093188
0.18213843 0.054117177 -0.09661267 0.04038884 0.08316803 -0.0036804872 -0.14100333 -0.08621878
0.039720576 0.06188661 -0.008612496 -0.14089495 0.063142456 0.13973022 -0.08539883 0.09130892
-0.0315768 -0.11322183 -0.12041286 -0.2607605 -0.06321407 -0.22304502 -0.35509968 -0.18171808
-0.08560662 -0.15859999 -0.16622847 -0.39662293 -0.21899688 0.061590414 -0.26527986 -0.2697864
-0.047915794 -0.0025877184 -0.10868368 -0.09644533 0.13674456 -0.009752515 -0.2398827 0.19195426
0.12290015 -0.21865803 0.18647519 -0.02968886 -0.07652225 -0.08520152 0.041155506 0.046362016
-0.17268315 -0.035275385 -0.021072276 -0.01426867 0.031201808 0.017100291 -0.051882353 -0.1602385
-0.06823298 0.17457178 0.008197921 0.01977468 -0.08723736 -0.11133713 -0.09428115 0.19973326
0.065409526 -0.14313912 0.05463785 -0.0035197656 -0.051239092 0.042193558 -0.027754785 -0.009425399
0.04502571 0.073279075 -0.07541503 -0.013917832 0.03806932 0.16705586 -0.18749097 -0.20048246
0.058601115 0.14583829 0.08035678 0.22090745 -0.117808536 -0.14546868 -0.095125906 -0.05097972
-0.17684007 -0.16651076 -0.1631249 -0.19540115 0.024445653 0.065271884 0.06857417 -0.0854124
0.061896995 0.07697194 0.104145266 -0.26108384 -0.1247597 0.04455606 -0.030058142 0.02356525
-0.21022817 0.049108453 -0.01396704 0.27973348 0.15411271 0.073506415 0.025253477 0.028706836
00000000: 0c41 ebbc f083 aa3c 66ae a5bd e7ab acbe
00000010: c8ac 69be 1d80 c0be 81c9 2dbe 802d 813e
00000020: 5fbb 2e3e 0de3 523e 7e70 f13d 5a28 fb3d
00000030: f70e afbd 3f9c a33d 4656 643e 306c c9be
00000040: 376a 81be 249f 81be 6604 a4bd a319 30be
00000050: 6dd7 2e3d 1137 f93d c476 0e3e 7d39 ac3d
00000060: 3e0a 33be 6c77 fe3b 1236 33be 5bd8 133c
00000070: e574 dfbd 77d8 223e d253 373e 736d cf3d
00000080: 0183 583e 7435 7cbe 4a7b edbd 7332 a5be
00000090: 6a34 a43d d0dd a13d ce2a 383e 1d3c e1bd
000000a0: 6d10 eabb bab5 e03d 7524 97be 632e f9be
000000b0: 18ff 89be cc28 17bd 9c2e 01bd 0854 04bd
000000c0: 8ca0 1e3d b665 d33c 280d b9bb 7250 ac3c
000000d0: 2987 0b3d ced4 1a3c a712 2c3e c4b1 c33c
000000e0: 179b 67bc b0b2 ad3d 8f90 f2bd 07d0 63be
000000f0: 3fc5 eebe e1c7 90be fe84 51be b8fc 6e3e
00000100: 361b 4e3d 735f e4bd 9118 ae3c 6f98 e0bd
00000110: c2cf 8bbd 4daf 96be 8f6f a2be cf37 aebd
00000120: 6eb4 71be 9fa6 24bd db77 053e 96e7 84be
00000130: 0d44 ba3c 8da9 1b3d 4d15 b7bd 516b 85bc
00000140: ad0d a5bd 6b21 9c3e e59b 53bc 0a97 d4bd
00000150: 4579 aa3b 20e7 2abe 5a22 94bd 5dee 6ebd
00000160: 0dcd 58be 6505 133e 2331 b3ba 9efd 07be
00000170: d778 e0be ca15 733d 11d0 0ebe f2b0 8cbe
00000180: 6d53 2cbe 3b3a 63be 6985 41be c31f e03d
00000190: 2111 9cbe d920 0abf 0f90 1abd 7cdc d5be
000001a0: 2196 36be 00f4 09be f82a aebe 6e9a 58be
000001b0: bdcb f53d 3036 7abe 6fb1 4d3d 593b 61bd
000001c0: f790 04be 8b8c 4b3e 92f0 43be 476e bebd
000001d0: eb18 703e 7977 e43d 2bef aa3d f6e3 80bd
000001e0: 0c92 6a3d dc33 f9bc ec98 25be 15a6 203d
000001f0: 77ae 863b bf84 2ebe 9fe6 47be b3ea e1bd
00000200: 9921 d03d fc9b 9cbe e3ab 2d3d c63f 0e3e
00000210: 1be4 63be 780b 573e 513e 743e 8af9 643e
00000220: 9fba d0bd da8c 4ebe dd7b 3b3d d34c 11be
00000230: fbee 03be c9f4 5d3d 081a 8bbe 65a9 613d
00000240: 7f82 3a3e f9a9 5d3d dddc c5bd c56e 253d
00000250: 0054 aa3d 5434 71bb 2d63 10be 7993 b0bd
00000260: 0bb2 223d d07c 7d3d 6d1b 0dbc c446 10be
00000270: d550 813d 7015 0f3e 95e5 aebd 2c00 bb3d
00000280: ad56 01bd d9e0 e7bd 049b f6bd 6682 85be
00000290: 6176 81bd ea65 64be a0cf b5be 4e14 3abe
000002a0: 8652 afbd 0968 22be cc37 2abe 2912 cbbe
000002b0: b840 60be 3b46 7c3d c3d2 87be 7121 8abe
000002c0: 5a43 44bd b696 29bb 8d95 debd 2185 c5bd
000002d0: c406 0c3e 03c9 1fbc cfa3 75be a88f 443e
000002e0: 13b3 fb3d e4e7 5fbe 5af3 3e3e 0d36 f3bc
000002f0: b3b7 9cbd 227e aebd ad92 283d 19e6 3d3d
00000300: dad3 30be ec7c 10bd c49f acbc 24c7 69bc
00000310: ef9a ff3c e915 8c3c 9782 54bd 9015 24be
00000320: bcbd 8bbd f2c2 323e 9350 063c 82fe a13c
00000330: 80a9 b2bd b904 e4bd 7a16 c1bd e086 4c3e
00000340: 6ef5 853d 1093 12be f0cb 5f3d deab 66bb
00000350: 15e0 51bd 27d3 2c3d 015e e3bc fd6c 1abc
00000360: e16c 383d 5713 963d 3273 9abd 9e07 64bc
00000370: 93ee 1b3d b110 2b3e a2fd 3fbe 464b 4dbe
00000380: b907 703d a256 153e 1892 a43d 9035 623e
00000390: 9a45 f1bd bef5 14be 5fd1 c2bd 1cd0 50bd
000003a0: 9015 35be cc81 2abe 370a 27be 3d17 48be
000003b0: 4042 c83c 44ad 853d 9d70 8c3d b2ec aebd
000003c0: b487 7d3d 77a3 9d3d 1d4a d53d c8ac 85be
000003d0: 0382 ffbd 6a80 363d 7e3c f6bc e90b c13c
000003e0: 0e46 57be f225 493d 03d6 64bc 3a39 8f3e
000003f0: b9cf 1d3e 888a 963d 61e0 ce3c 992a eb3c

model.4.bias f4 [16]
-0.013598627 -0.03669577 0.0539717 -0.019424796 -0.13961534 -0.04562528 -0.033952195 -0.095267646
0.0013596666 -0.086577766 0.04771874 -0.07869329 -0.10372668 -0.09650138 -0.017032286 0.055062104
00000000: c7cc 5ebc 4e4e 16bd 6e11 5d3d c020 9fbc
00000010: 53f7 0ebe 93e1 3abd 7511 0bbd af1b c3bd
00000020: d736 b23a af4f b1bd ba74 433d f329 a1bd
00000030: a76e d4bd 84a2 c5bd 4b87 8bbc cd88 613d

model.9.weight f4 [64, 400]
-0.012678527 -0.058314495 0.034750428 -0.07584082 -0.009584638 -0.09463199 -0.12785412 -0.028237704
-0.09703986 -0.1711011 -0.030401178 -0.16388375 -0.30619454 -0.11632588 0.061936047 -0.10893881
0.023418805 0.120662354 0.17181298 0.037521534 -0.08903563 0.0030837916 -0.042538583 -0.040847152
-0.03513194 -0.01684474 -0.0471334 -0.043097362 -0.19144192 -0.04905805 0.05867744 -0.06593924
-0.09176251 -0.14214303 -0.096156016 -0.08637039 -0.003653683 -0.08372819 -0.11173786 0.06057999
0.037932187 0.046836648 -0.1259498 -0.17880669 0.07173048 0.013357416 0.03767425 0.02380264
0.007750499 0.06947118 0.065401435 -0.021166736 -0.1430734 -0.118402325 -0.019072697 0.022918757
-0.123092964 -0.16494343 -0.100097016 0.08146631 -0.014157404 0.070485875 -0.07210092 -0.08792879
0.058983155 0.03234563 -0.09431134 -0.13974936 0.038055465 0.04153066 0.009522273 -0.016926313
0.0028348581 0.08838665 0.012627215 0.020791272 -0.039423633 0.01302358 0.04508337 -0.06561927
-0.031795375 -0.024266504 -0.019681392 0.010773459 0.036075857 0.16853562 0.1336805 0.09206651
-0.06221975 -0.104544714 -0.09648562 -0.03281696 0.0038116958 0.083763935 -0.0995727 0.084290184
0.05799153 -0.030798834 -0.11125194 -0.06545075 0.034495294 -0.026231658 -0.043924965 -0.0964966
-0.08200229 0.058374427 0.09411283 -0.052775 0.019284775 0.08620654 0.026094541 -0.07039956
0.08626325 0.22570796 0.13425139 0.030428296 0.12109007 0.100603394 -0.014441602 -0.010674949
-0.046740487 0.017488338 -0.0047898227 0.01659695 0.021713652 -0.04974887 -0.0754545 0.01232327
0.010856952 -0.017322205 -0.036331084 0.021419868 -0.0554615 -0.04197231 0.029921213 0.07104775
0.11246368 0.12041937 -0.20725158 0.06866092 0.050197866 -0.02227019 0.034797627 -0.17229299
-0.08714617 0.09027095 -0.01187904 -0.045008227 -0.036820505 -0.045598667 -0.042231683 -0.05417946
-0.08358625 -0.066729285 -0.029355396 -0.15878363 -0.28388038 -0.074988194 -0.054993186 -0.14096643
0.03648723 0.09194735 0.0162175 -0.18254137 -0.24457431 -0.0010260764 0.07226723 0.0735789
0.004284739 -0.024670877 0.016417162 -0.017572377 -0.10137716 -0.13026085 -0.10132612 0.031575654
0.044234164 0.021996114 0.013469318 0.014032573 0.10036953 0.16554707 0.03436313 -0.057842027
0.011973494 -0.05482992 -0.09940079 -0.040833026 0.20515351 0.118985415 -0.07443046 -0.04984205
0.08529969 0.027917722 -0.07929111 -0.023619758 -0.003236133 0.005592014 -0.021481337 0.0068237213
-0.02025755 -0.031069068 -0.012292433 0.07723708 0.06578784 0.026794799 -0.1035291 -0.04073976
-0.04498179 0.028235907 -0.1462858 -0.22030279 -0.052424986 -0.20712294 -0.26918873 0.11056087
-0.07467929 -0.27094796 -0.3246055 -0.05856205 -0.036421183 -0.1488497 0.01976604 -0.03428235
-0.03598358 -0.023860317 -0.07438103 -0.13151541 0.06129915 0.077072404 -0.16295765 -0.03809476
-0.028614182 -0.028022863 -0.040557068 -0.10509659 -0.12870613 -0.024043234 -0.12823741 -0.07660653
-0.00081329717 -0.055442877 -0.023167433 0.017309045 0.06881927 -0.071653135 0.03138235 -0.0089258095
-0.037821844 -0.14724529 -0.01674958 -0.14471202 -0.12354931 -0.030082865 0.074853085 -0.026717454
00000000: 99b9 4fbc 2edb 6ebd 7756 0e3d 6f52 9bbd
00000010: e308 1dbc 6bce c1bd 31ec 02be c252 e7bc
00000020: d6bc c6bd 2035 2fbe e40b f9bc 24d1 27be
00000030: 88c5 9cbe 433c eebd a7b0 7d3d 501b dfbd
00000040: cbd8 bf3c d31d f73d beef 2f3e 2eb0 193d
00000050: 5058 b6bd 7019 4a3b f03c 2ebd 584f 27bd
00000060: 82e6 0fbd fbfd 89bc f40e 41bd dc86 30bd
00000070: 5a09 44be 18f1 48bd c157 703d 270b 87bd
00000080: fced bbbd f18d 11be 72ed c4bd f6e2 b0bd
00000090: a172 6fbb af79 abbd d2d6 e4bd b922 783d
000000a0: c85e 1b3d c9d7 3f3d fcf8 00be 1a19 37be
000000b0: 6ee7 923d 10d9 5a3c 5050 1a3d c1fd c23c
000000c0: e6f7 fd3b e846 8e3d 30f1 853d dd65 adbc
000000d0: d581 12be eb7c f2bd 583e 9cbc 1ec0 bb3c
000000e0: 2a18 fcbd eee6 28be aaff ccbd cfd7 a63d
000000f0: 75f4 67bc e65a 903d a6a9 93bd 0214 b4bd
00000100: 5298 713d da7c 043d 4e26 c1bd 751a 0fbe
00000110: 0ce0 1b3d 0e1c 2a3d 4f03 1c3c 0da9 8abc
00000120: 07c9 393b 0f04 b53d 61e2 4e3c 7552 aa3c
00000130: ad7a 21bd db60 553c 57a9 383d 6563 86bd
00000140: de3b 02bd 8cca c6bc df3a a1bc 2a83 303c
00000150: 47c4 133d 9a94 2c3e 8ae3 083e 5e8d bc3d
00000160: 23da 7ebd 8a1b d6bd 419a c5bd 146b 06bd
00000170: a5cd 793b 6d8c ab3d c6ec cbbd 55a0 ac3d
00000180: 8788 6d3d d64d fcbc 0fd8 e3bd 0b0b 86bd
00000190: f04a 0d3d c6e3 d6bc aaea 33bd 02a0 c5bd
000001a0: d1f0 a7bd 061a 6f3d 3abe c03d 992a 58bd
000001b0: 1bfb 9d3c 0e8d b03d 38c4 d53c a52d 90bd
000001c0: c9aa b03d fd1f 673e 3279 093e c344 f93c
000001d0: 12fe f73d 2709 ce3d 789c 6cbc fbe5 2ebc
000001e0: f472 3fbd b443 8f3c f2f3 9cbb 54f6 873c
000001f0: d4e0 b13c 79c5 4bbd e487 9abd 8ae7 493c
00000200: 5be1 313c 4ce7 8dbc e7cf 14bd b878 af3c
00000210: 992b 63bd 28eb 2bbd 551d f53c 7c81 913d
00000220: 5c53 e63d 6e9e f63d c239 54be 199e 8c3d
00000230: 479c 4d3d f96f b6bc f587 0e3d 936d 30be
00000240: b179 b2bd fadf b83d 4ea0 42bc 8c5a 38bd
00000250: 19d1 16bd abc5 3abd 21fb 2cbd 48eb 5dbd
00000260: 452f abbd 5da9 88bd ba7a f0bc 2d98 22be
00000270: c558 91be 6993 99bd 8940 61bd 8159 10be
00000280: a273 153d e44e bc3d 90da 843c 20ec 3abe
00000290: b071 7abe 697d 86ba d700 943d 89b0 963d
000002a0: ff66 8c3b 941a cabc 497d 863c f2f3 8fbc
000002b0: d49e cfbd 1a63 05be 1284 cfbd 7955 013d
000002c0: e22e 353d 3231 b43c 6aae 5c3c e1e8 653c
000002d0: 8a8e cd3d 2c85 293e 5ac0 0c3d c3eb 6cbd
000002e0: 792c 443c 5795 60bd a492 cbbd 8840 27bd
000002f0: c313 523e a0ae f33d ff6e 98bd 2d27 4cbd
00000300: 9bb1 ae3d b5b3 e43c 6163 a2bd 397e c1bc
00000310: 4d15 54bb 373d b73b a1f9 afbc 8699 df3b
00000320: 29f3 a5bc 8f84 febc 3366 49bc 792e 9e3d
00000330: c6bb 863d c480 db3c 1107 d4bd bcde 26bd
00000340: d33e 38bd fd4e e73c f2cb 15be 0e97 61be
00000350: 95bb 56bd 0918 54be 1bd3 89be bd6d e23d
00000360: 75f1 98bd b1b9 8abe b132 a6be c3de 6fbd
00000370: 612e 15bd 0e6c 18be 64ec a13c a66b 0cbd
00000380: 8563 13bd b676 c3bc 1555 98bd faab 06be
00000390: d114 7b3d 23d8 9d3d 5fde 26be 4009 1cbd
000003a0: 4a68 eabc 3490 e5bc 2b1f 26bd e23c d7bd
000003b0: 8acb 03be 51f6 c4bc ab50 03be e2e3 9cbd
000003c0: 7333 55ba 1218 63bd a1c9 bdbc b3cb 8d3c
000003d0: 1ef1 8c3d e1be 92bd c78a 003d 8f3d 12bc
000003e0: 14eb 1abd 78c7 16be 6a36 89bc 632f 14be
000003f0: 6c07 fdbd 5770 f6bc 934c 993d 90de dabc

model.9.bias f4 [64]
0.07572712 0.023238461 -0.09109431 -0.11130944 -0.056687597 0.055190824 -0.052528653 -0.004868349
-0.087153785 -0.04521296 0.11015154 -0.048871875 -0.07641785 0.114323124 -0.049166568 -0.018513786
0.010511724 -0.04234928 -0.0143172685 0.007938889 -0.025684595 -0.022474347 -0.12689836 -0.0018460987
0.0404123 -0.042164903 -0.111825265 -0.05121029 -0.094196565 -0.06672786 -0.04868191 0.018587414
-0.050649036 -0.0692331 0.10082352 -0.107047714 -0.068522796 -0.085752584 -0.061760478 -0.1218301
0.11499063 0.0968881 -0.025192285 0.016575633 0.03113412 -0.00015173476 -0.049469665 -0.07413368
0.0479612 -0.031875078 0.096345395 -0.0015415816 -0.07441459 -0.03458468 0.02997384 -0.15499173
-0.04980524 0.0076804995 -0.06183201 -0.0012666377 -0.017915685 -0.053435307 -0.11424219 -0.038148653
00000000: d216 9b3d 965e be3c a78f babd 34f6 e3bd
00000010: 4131 68bd c60f 623d 4928 57bd ac86 9fbb
00000020: af7d b2bd 3a31 39bd 2197 e13d e02d 48bd
00000030: f680 9cbd 3e22 ea3d e262 49bd 39aa 97bc
00000040: 5e39 2c3c 7076 2dbd fa92 6abc 1d12 023c
00000050: 8068 d2bc 1f1c b8bc a5f1 01be cbf8 f1ba
00000060: 5e87 253d 1bb5 2cbd a504 e5bd e2c1 51bd
00000070: 21ea c0bd 9ea8 88bd af66 47bd a244 983c
00000080: 5d75 4fbd 15ca 8dbd 907c ce3d d53b dbbd
00000090: ae55 8cbd 0d9f afbd 8ef8 7cbd 0f82 f9bd
000000a0: 3580 eb3d 456d c63d 0d60 cebc 9fc9 873c
000000b0: fb0c ff3c fd1a 1fb9 b4a0 4abd 66d3 97bd
000000c0: f772 443d 718f 02bd bc50 c53d e50e caba
000000d0: ad66 98bd aaa8 0dbd b38b f53c 27b6 1ebe
000000e0: 9400 4cbd b3ac fb3b 9043 7dbd 4f05 a6ba
000000f0: eac3 92bc fbde 5abd cff7 e9bd c341 1cbd

model.11.weight f4 [10, 64]
-0.14467871 -0.3309446 -0.10599808 -0.30012926 -0.05367284 -0.08655851 -0.091794945 -0.14586632
0.057189126 -0.03242653 -0.07567863 -0.001813239 -0.17380211 -0.36885116 -0.38259074 -0.16816962
-0.28600055 0.047094192 0.3407328 0.054813582 -0.06706962 0.18722446 -0.40372738 0.09614124
-0.2562569 -0.3300829 0.0672597 0.11087305 -0.4648444 0.29621187 -0.33926123 0.07566039
-0.16507468 0.10629933 0.07973555 -0.3919602 0.06789224 -0.45037663 0.22927605 0.17195247
-0.5138158 -0.3247423 0.109107666 -0.14175577 0.017996138 -0.06001551 0.19630863 0.013738522
-0.033737298 0.002118955 -0.23338379 -0.435642 -0.012841303 -0.5793589 0.004906641 -0.25328594
-0.4194866 -0.25592178 0.0022174756 -0.33498684 -0.17146023 0.015724147 0.12861335 0.030765215
-0.14907871 -0.37482786 0.039485265 -0.23466907 -0.074304506 0.0144946 -0.04343422 0.16472568
-0.21653463 -0.103979185 0.17465712 -0.39875314 -0.23487006 0.009784802 -0.20354123 0.25748637
-0.004014907 -0.09348129 0.13092208 0.14940958 0.11227982 -0.18148577 0.11517516 -0.2595686
0.03913843 -0.28623304 -0.2982441 -0.37127373 -0.08198863 0.0032228634 -0.31792942 -0.080092445
-0.32872763 0.034157436 0.054525502 -0.36814997 -0.38955268 0.10624768 -0.22557692 0.03300758
0.132312 0.13216157 -0.024796637 -0.48549524 -0.1398256 -0.02587308 -0.13457562 -0.13470428
-0.40643516 0.10901233 0.20524235 -0.3435833 -0.16993183 -0.07761987 0.11000807 -0.27292597
-0.3120488 -0.020223 -0.3385719 -0.4478803 0.013384152 0.17703605 -0.32870692 0.13984145
-0.32616442 0.09712397 0.008552084 0.12005129 -0.052407842 0.09592444 -0.10366759 0.02537221
0.062297255 -0.19417273 -0.5358278 0.054722317 0.029875193 -0.2913459 0.18505055 0.18551086
-0.032294367 -0.061058458 -0.26604953 0.05784115 -0.08345593 -0.07771439 0.028631015 -0.24751627
-0.20278502 0.10136339 -0.459341 0.15719002 0.14531784 0.104183905 -0.15295039 -0.2609628
-0.22522545 0.14604983 -0.13773379 -0.21200266 -0.016449016 0.029525274 -0.30895713 0.011400289
-0.24973679 -0.58429337 -0.40890697 -0.26420987 0.013731111 0.005178343 -0.07494506 -0.13545951
-0.17789106 0.10404365 -0.2862958 -0.14086924 -0.25229996 -0.19412097 -0.044643097 0.016290406
-0.24216007 -0.02402593 0.039522253 -0.13540523 -0.26930764 0.0131652085 0.020564063 -0.031137541
-0.051437642 -0.23421827 0.088277765 0.06763198 -0.026282912 -0.12843686 -0.05363516 -0.0072422945
-0.3023776 -0.1150904 -0.28190848 -0.26716095 -0.41113755 0.71420187 -0.15315641 -0.4784768
-0.0037925907 -0.13447255 0.0018646047 -0.4306567 -0.33057535 0.14258105 0.052647945 0.21589252
-0.31602523 -0.40822345 -0.2825164 -0.11262546 0.0024055468 -0.101037994 -0.06887729 -0.0931708
0.19765413 0.032182124 0.0028817095 0.025338143 0.03804151 -0.019651871 -0.24040054 0.0838862
0.22772218 -0.23809136 -0.23469651 -0.15889713 0.05030161 -0.13786668 -0.24497652 -0.29308462
-0.27029887 -0.29926774 -0.49162874 0.075674534 -0.3101768 -0.43208402 0.11263029 0.053536918
-0.1916644 0.123544075 0.028297158 0.009508272 -0.019187065 -0.38881016 -0.16343717 0.022434922
00000000: a826 14be 9271 a9be 8515 d9bd 8baa 99be
00000010: 0dd8 5bbd 9745 b1bd fdfe bbbd fb5d 15be
00000020: 253f 6a3d aed1 04bd 66fd 9abd 34aa edba
00000030: 2ef9 31be 0fda bcbe efe2 c3be a834 2cbe
00000040: aa6e 92be d7e5 403d 8874 ae3e 3584 603d
00000050: cc5b 89bd c5b7 3f3e 5bb5 cebe b3e5 c43d
00000060: 1b34 83be a000 a9be 74bf 893d 6911 e33d
00000070: 1600 eebe 15a9 973e a6b3 adbe d6f3 9a3d
00000080: 5609 29be 77b3 d93d 644c a33d 02af c8be
00000090: 160b 8b3d c497 e6be 57c7 6a3e 4f14 303e
000000a0: 6f89 03bf 9f44 a6be d773 df3d 6d28 11be
000000b0: a36c 933c d3d2 75bd 2105 493e 8a17 613c
000000c0: 1f30 0abd 2ade 0a3b 29fc 6ebe 780c dfbe
000000d0: 5464 52bc dd50 14bf e3c7 a03b b2ae 81be
000000e0: f3c6 d6be 2e08 83be 1153 113b 6583 abbe
000000f0: 4593 2fbe edcf 803c 38b3 033e 5507 fc3c
00000100: 17a8 18be 70e9 bfbe 4dbb 213d 174d 70be
00000110: f62c 98bd c27a 6d3c 15e8 31bd d9ad 283e
00000120: 41bb 5dbe 0af3 d4bd 51d9 323e 5f29 ccbe
00000130: c781 70be 6f50 203c 1d6d 50be 41d5 833e
00000140: 7b8f 83bb 1e73 bfbd 7010 063e d3fe 183e
00000150: f6f2 e53d 68d7 39be f4e0 eb3d 2de6 84be
00000160: 9e4f 203d 238d 92be 73b3 98be 9717 bebe
00000170: a8e9 a7bd ad36 533b a5c7 a2be 8207 a4bd
00000180: fd4e a8be abe8 0b3d 2256 5f3d 277e bcbe
00000190: 7373 c7be 6298 d93d a3fd 66be f532 073d
000001a0: cc7c 073e 5d55 073e 5122 cbbc d592 f8be
000001b0: 712e 0fbe c8f3 d3bc 31ce 09be ebef 09be
000001c0: 4518 d0be db41 df3d 0d2b 523e 26ea afbe
000001d0: 9c02 2ebe 2bf7 9ebd e94b e13d f4bc 8bbe
000001e0: dcc4 9fbe b4aa a5bc 4c59 adbe 9150 e5be
000001f0: 3449 5b3c f048 353e 464c a8be 9932 0f3e
00000200: 06ff a6be efe8 c63d 0a1e 0c3c 73dd f53d
00000210: 9ba9 56bd 0874 c43d ac4f d4bd 62d9 cf3c
00000220: 682b 7f3d 37d5 46be 032c 09bf 8224 603d
00000230: d2bc f43c 4a2b 95be e47d 3d3e 8ff6 3d3e
00000240: 1947 04bd 6f18 7abd a537 88be d7ea 6c3d
00000250: f1ea aabd b928 9fbd 978b ea3c e874 7dbe
00000260: e0a6 4fbe 9c97 cf3d be2e ebbe 6cf6 203e
00000270: 33ce 143e 5f5e d53d 079f 1cbe eb9c 85be
00000280: 80a1 66be 168e 153e 160a 0dbe 3a17 59be
00000290: 16c0 86bc fdde f13c a12f 9ebe 47c8 3a3c
000002a0: 00bb 7fbe 4094 15bf 415c d1be 8446 87be
000002b0: 74f8 603c 17af a93b cc7c 99bd e6b5 0abe
000002c0: 1329 36be d614 d53d 5d95 92be 0740 10be
000002d0: 762d 81be a6c7 46be aedb 36bd 7573 853c
000002e0: cff8 77be 07d2 c4bc 16e2 213d aba7 0abe
000002f0: b1e2 89be e3b2 573c f775 a83c 2814 ffbc
00000300: 47b0 52bd ead6 6fbe f9ca b43d a382 8a3d
00000310: 434f d7bc f484 03be 8bb0 5bbd c550 edbb
00000320: 3dd1 9abe 84b4 ebbd 4f56 90be 52c9 88be
00000330: 9f80 d2be efd5 363f 09d5 1cbe e9fa f4be
00000340: 1d8d 78bb 2cb3 09be c065 f43a 097f dcbe
00000350: 2c41 a9be c400 123e 5fa5 573d ee12 5d3e
00000360: 0fce a1be aa02 d1be fda5 90be 2da8 e6bd
00000370: 61a6 1d3b 02ed cebd 890f 8dbd 55d0 bebd
00000380: d865 4a3e 67d1 033d 10db 3c3b f091 cf3c
00000390: 6ad1 1b3d f6fc a0bc 8f2b 76be 87cc ab3d
000003a0: 0130 693e 39ce 73be 4854 70be eeb5 22be
000003b0: 1009 4e3d ec2c 0dbe 20db 7abe 300f 96be
000003c0: 9d64 8abe 9f39 99be c3b6 fbbe 40fb 9a3d
000003d0: 7ecf 9ebe 1e3a ddbe b6aa e63d 8749 5b3d
000003e0: ac43 44be ad04 fd3d 71cf e73c 95c8 1b3c
000003f0: 312e 9dbc 2012 c7be 135c 27be 71c9 b73c

model.11.bias f4 [10]
-0.06475682 0.05542426 -0.029818399 0.06382916 0.046416126 -0.10878991 -0.03854043 -0.014743738
0.03415853 0.018227154
00000000: 399f 84bd 8d04 633d b745 f4bc ddb8 823d
00000010: d61e 3e3d 3fcd debd 92dc 1dbd b88f 71bc
00000020: d1e9 0b3d 1d51 953c
