model_best_9_kernels.pt (torch, 113983 bytes, 8 tensors)

model.0.weight f4 [9, 1, 3, 3]
0.42421696 -0.121851005 -0.54338276 0.46451274 -0.2925573 -0.1678914 0.070003 0.12051482
-0.1505248 0.19732529 0.33142555 0.20271601 0.29789695 -0.117537834 -0.17713247 -0.14101662
-0.30061826 -0.25962082 0.37081063 0.21454807 -0.33598226 0.06304369 0.2681564 -0.032666788
-0.09012346 0.08931651 0.20789862 0.2032192 -0.20486008 0.21565872 0.3267063 0.52585095
0.38191482 -0.48451573 -0.65126693 -0.25014433 0.11290062 0.05117753 0.3345852 0.029414373
0.47280174 -0.17862675 0.33038118 0.009355858 -0.4213641 0.5344316 0.28074694 0.17463246
0.020786064 -0.14866063 -0.53949577 -0.58958185 -0.23857719 -0.18404526 0.29450548 0.2490956
0.0618005 -0.25783202 0.26463813 0.18527149 -0.30640694 0.16386193 0.11868466 0.5204681
-0.07104695 -0.3584724 -0.012723984 -0.23946393 -0.44082505 -0.57553846 -0.36333963 -0.18417741
0.22529313 0.1649654 0.2972403 0.09641982 0.09748219 0.25164038 -0.46301553 -0.16439077
-0.42944288
00000000: f732 d93e 058d f9bd 221b 0bbf 9dd4 ed3e
00000010: 12ca 95be b9eb 2bbe bc5d 8f3d 79d0 f63d
00000020: 2c23 1abe a40f 4a3e 9cb0 a93e c994 4f3e
00000030: f385 983e adb7 f0bd 3762 35be a966 10be
00000040: a3ea 99be 05ed 84be e4da bd3e 7db2 5b3e
00000050: de05 acbe 0d1d 813d cc4b 893e 9ccd 05bd
00000060: a692 b8bd 93eb b63d 60e3 543e b218 503e
00000070: d7c6 51be a4d5 5c3e 0c46 a73e 2b9e 063f
00000080: 578a c33e 7212 f8be 6eb9 26bf eb12 80be
00000090: 7138 e73d 889f 513d c04e ab3e 69f6 f03c
000000a0: 1213 f23e eee9 36be b927 a93e 5049 193c
000000b0: 09bd d7be 82d0 083f 10be 8f3e dad2 323e
000000c0: 8947 aa3c 7e3a 18be 651c 0abf d6ee 16bf
000000d0: 944d 74be 5c76 3cbe 6cc9 963e eb12 7f3e
000000e0: 8522 7d3d 8f02 84be a67e 873e cfb7 3d3e
000000f0: 5fe1 9cbe 6ccb 273e f110 f33d 663d 053f
00000100: 1081 91bd b289 b7be 4278 50bc 0836 75be
00000110: d2b3 e1be 7d56 13bf a707 babe 0199 3cbe
00000120: 3eb3 663e b1ec 283e e12f 983e c177 c53d
00000130: bea4 c73d 02d7 803e 5f10 edbe 0e56 28be
00000140: f0df dbbe

model.0.bias f4 [9]
-0.2379837 -0.06563605 -0.32674348 -0.028422669 -0.5506657 -0.31846687 -0.15098278 -0.07486233
0.03171252
00000000: 00b2 73be 326c 86bd ec4a a7be a8d6 e8bc
00000010: 6df8 0cbf 170e a3be 3b9b 1abe 6c51 99bd
00000020: fde4 013d

model.4.weight f4 [16, 9, 3, 3]
0.08202838 0.09229151 0.18152423 -0.07389917 -0.046018578 0.043604378 -0.038172882 -0.051914837
0.1721089 -0.006398781 -0.10969137 0.106301166 0.1646472 -0.15639324 0.077347755 -0.25488034
-0.045296375 0.110734604 0.061812624 0.15248723 0.0071309176 -0.09987932 0.091661915 -0.04161311
-0.17526849 0.0710954 0.06707533 0.14284967 -0.05450935 -0.091344394 0.10754529 -0.07756382
-0.030407032 -0.07311121 -0.105592266 -0.11488711 -0.15412672 -0.013354508 0.07146173 -0.08305654
0.05786538 0.18030727 -0.16993472 0.105223246 0.11444532 -0.0056273136 -0.11734109 -0.14488897
-0.00057791726 -0.33195648 -0.15899782 -0.06085585 -0.4374368 -0.08484635 0.07468015 0.027126895
0.012215882 0.026759027 0.0917822 0.10246108 -0.027197145 0.035862237 -0.08865194 -0.10380036
-0.25830245 -0.17212887 0.0250329 -0.31381345 -0.10408314 0.035248395 -0.3091181 0.009588696
0.06397026 0.052429784 -0.08119544 0.057928734 -0.07466879 -0.051768146 -0.20189418 -0.13812137
-0.07886258 0.15769519 -0.07156647 0.052271504 0.2666799 -0.24643014 0.23088786 0.051987324
-0.20446192 0.18516445 -0.029765012 -0.4774692 0.07465198 -0.21591851 -0.38915998 0.19460021
-0.20245065 -0.282949 -0.015623348 -0.1599859 -0.12326234 -0.028335283 -0.14990272 -0.029376794
0.22597249 -0.069018304 0.0143059995 0.17732391 -0.11498464 -0.35435537 -0.08162909 -0.12044579
-0.089540504 -0.06709889 0.0004281942 -0.071125515 0.03072159 -0.025049586 -0.06260337 0.31721634
-0.059068162 0.21346565 0.0008544076 -0.045104533 0.029999722 -0.0162263 0.0558304 -0.31273344
-0.04207792 0.060012214 -0.464641 -0.0018666182 -0.16909382 -0.38486078 -0.14040099 -0.15797111
-0.011622772 0.08994431 0.03699689 0.11733198 0.098678574 -0.108793885 0.07955671 -0.02886157
0.076356 0.001709908 -0.3007806 0.11469682 -0.17225114 -0.065015465 -0.06764868 -0.08316983
-0.14020263 -0.19179742 -0.40546095 -0.056881342 -0.30177203 -0.11682361 -0.0342301 -0.055071235
-0.0034374916 0.012316326 0.09395744 0.20258178 0.007018011 -0.16018799 -0.012692178 -0.055513453
-0.10769784 -0.3760269 -0.19631441 -0.11863359 -0.22196583 0.13207392 0.017417599 -0.013008704
0.23302467 -0.17205544 0.100092754 0.053984407 0.18335277 0.0630798 -0.005063029 0.064774156
0.0042159883 -0.08982409 -0.3593444 -0.36107516 -0.15552309 0.08217011 -0.0662967 -0.03655173
0.0900914 0.086435735 0.11817246 -0.37077782 -0.21230492 -0.056806844 0.0047836513 0.06087279
0.05222624 -0.10975893 0.0028721713 0.1362821 -0.269158 -0.33207387 -0.14666891 -0.1721997
-0.19611715 -0.010045054 -0.047140054 0.083973646 0.1647517 -0.07238001 0.1755023 0.22331835
0.044782523 0.058942426 0.0060270475 0.092479266 0.014000906 -0.017824225 -0.36950627 -0.1985556
-0.07309593 -0.11348148 -0.090330936 -0.057824723 -0.02755892 0.10158924 0.040727474 -0.06680169
0.0030577052 0.10219856 0.068208985 -0.026445571 -0.071900606 0.09495869 -0.011438776 0.16750437
-0.17393021 0.0028849028 0.038311414 0.10642264 0.046972167 0.005811234 -0.10756524 -0.018224725
0.12947045 -0.060882412 -0.113729335 -0.08382985 -0.14864549 0.008500776 -0.0076648104 0.19965178
00000000: 7ffe a73d 5503 bd3d 7de1 393e 7358 97bd
00000010: fa7d 3cbd 819a 323d 2b5b 1cbd a7a4 54bd
00000020: 513d 303e deac d1bb dea5 e0bd 6db4 d93d
00000030: 4799 283e 8d25 20be 8068 9e3d ad7f 82be
00000040: b188 39bd d3c8 e23d 3c2f 7d3d 9d25 1c3e
00000050: 79aa e93b 878d ccbd 3eb9 bb3d 8272 2abd
00000060: 9579 33be 779a 913d ca5e 893d 2f47 123e
00000070: 3245 5fbd c512 bbbd b440 dc3d c8d9 9ebd
00000080: 2b18 f9bc 54bb 95bd c240 d8bd ef49 ebbd
00000090: 65d3 1dbe decc 5abc 875a 923d 8c19 aabd
000000a0: 4004 6d3d 78a2 383e 5e03 2ebe 497f d73d
000000b0: 4f62 ea3d 5465 b8bb 8750 f0bd c65d 14be
000000c0: 5f7f 17ba 33f6 a9be 53d0 22be fc43 79bd
000000d0: b7f7 dfbe ecc3 adbd e8f1 983d 3939 de3c
000000e0: 1f25 483c bf35 db3c 4ef8 bb3d 1dd7 d13d
000000f0: 8ccc debc 48e4 123d 268f b5bd 4895 d4bd
00000100: 3840 84be 8d42 30be cc11 cd3c 28ac a0be
00000110: 8b29 d5bd 9f60 103d ba44 9ebe e819 1d3c
00000120: d702 833d 9dc0 563d cb49 a6bd ae46 6d3d
00000130: f3eb 98bd d60a 54bd 59bd 4ebe b06f 0dbe
00000140: b482 a1bd d97a 213e 7191 92bd a51a 563d
00000150: 458a 883e 2f58 7cbe de6d 6c3e a9f0 543d
00000160: 775e 51be c09b 3d3e c1d5 f3bc d876 f4be
00000170: 23e3 983d be19 5dbe fa3f c7be 4745 473e
00000180: 394f 4fbe b1de 90be 12f9 7fbc 58d3 23be
00000190: f770 fcbd 651f e8bc 1980 19be 9aa7 f0bc
000001a0: 5565 673e 7859 8dbd b663 6a3c 6694 353e
000001b0: 117d ebbd 116e b5be 272d a7bd 48ac f6bd
000001c0: 0361 b7bd 256b 89bd 417f e039 41aa 91bd
000001d0: d8ab fb3c ca34 cdbc 3236 80bd 2e6a a23e
000001e0: 75f1 71bd bd96 5a3e 53fa 5f3a 88bf 38bd
000001f0: fac1 f53c 04ed 84bc 6bae 643d 991e a0be
00000200: e659 2cbd 5ecf 753d 6de5 edbe 50a9 f4ba
00000210: ee26 2dbe 790c c5be 47c5 0fbe 2ec3 21be
00000220: 706d 3ebc b934 b83d 0d8a 173d c04b f03d
00000230: fe17 ca3d 54cf debd a1ee a23d 196f ecbc
00000240: 8960 9c3d fe1e e03a eaff 99be 2be6 ea3d
00000250: 9a62 30be d426 85bd 648b 8abd f254 aabd
00000260: 4791 0fbe 8b66 44be 9498 cfbe 69fc 68bd
00000270: dd81 9abe 3841 efbd dd34 0cbd 6092 61bd
00000280: 8a47 61bb 6aca 493c c26c c03d 9971 4f3e
00000290: 58f7 e53b 5208 24be daf2 4fbc 1362 63bd
000002a0: af90 dcbd 9986 c0be a506 49be 2bf6 f2bd
000002b0: 034b 63be 633e 073e 5aaf 8e3c 7622 55bc
000002c0: 059e 6e3e 4d2f 30be 6efd cc3d c11e 5d3d
000002d0: d4c0 3b3e fb2f 813d c4e7 a5bb 50a8 843d
000002e0: 4626 8a3b b1f5 b7bd fdfb b7be d8de b8be
000002f0: 7241 1fbe cd48 a83d 90c6 87bd 44b7 15bd
00000300: d781 b83d 3805 b13d 6704 f23d 97d6 bdbe
00000310: 7666 59be 4bae 68bd 2dc0 9c3b bf55 793d
00000320: 2feb 553d 4ac9 e0bd 0a3b 3c3b 898d 0b3e
00000330: 14cf 89be 9605 aabe 6030 16be 1e55 30be
00000340: efd2 48be 0394 24bc ee15 41bd 60fa ab3d
00000350: abb4 283e f83b 94bd e0b6 333e 91ad 643e
00000360: e16d 373d 9d6d 713d 8a7e c53b c565 bd3d
00000370: 0e64 653c 1c04 92bc ed2f bdbe 2952 4bbe
00000380: 52b3 95bd fa68 e8bd 6dff b8bd 9ed9 6cbd
00000390: 3fc3 e1bc 050e d03d dad1 263d 53cf 88bd
000003a0: c863 483b 7b4d d13d 27b1 8b3d 62a4 d8bc
000003b0: a040 93bd b479 c23d b469 3bbc 4486 2b3e
000003c0: c31a 32be a310 3d3b 6eec 1c3d 1df4 d93d
000003d0: e365 403d 2a6c be3b 2a4b dcbd 054c 95bc
000003e0: e793 043e d65f 79bd edea e8bd fcae abbd
000003f0: 8636 18be d746 0b3c 1729 fbbb 8471 4c3e

model.4.bias f4 [16]
-0.049158555 0.03488989 0.03782767 -0.15644008 -0.27602452 0.05453773 -0.3728047 0.0918618
-0.0853365 0.12391738 -0.23484132 -0.13556556 -0.13953064 -0.177475 -0.072019786 -0.07628776
00000000: 7b5a 49bd b4e8 0e3d 30f1 1a3d d431 20be
00000010: 1653 8dbe f462 5f3d 42e0 bebe 0a22 bc3d
00000020: e7c4 aebd 65c8 fd3d 3e7a 70be b3d1 0abe
00000030: 1fe1 0ebe 02bc 35be 1c7f 93bd c23c 9cbd

model.9.weight f4 [64, 400]
-0.01857721 0.007884264 0.03208071 -0.033444468 0.07714286 0.1082743 0.054083984 0.06442936
-0.023122761 -0.031792905 0.014518661 0.038487192 0.046075054 0.02013447 -0.1276675 -0.06713685
0.03626501 0.09240859 0.017035427 -0.13776547 -0.04505759 -0.027024101 0.100053 0.114716545
-0.0055634454 0.060178686 0.0008542934 0.11819226 0.03607299 -0.051407315 0.08409166 0.06390205
0.20170884 0.1532432 0.13240333 -0.09717186 0.052639175 0.00942904 0.06414496 0.0033104115
-0.061877497 -0.1032872 -0.015642364 0.034225535 -0.107110076 0.015488668 0.04614476 0.0035808184
-0.031963985 -0.07753343 -0.030856272 -0.11856122 -0.12000468 -0.030456137 0.10060456 -0.04402933
-0.09418239 -0.05965922 0.088587865 0.15076838 0.16260405 0.113363884 0.06909314 0.025722887
0.1315962 0.16052184 0.077149905 0.0051653204 -0.034772933 0.052583434 0.07482603 -0.019658765
-0.008188385 -0.017536039 -0.019590974 -0.070421755 -0.09454827 -0.07826587 -0.0530632 0.055901855
0.18266244 -0.0543878 -0.026413772 -0.011003442 0.019616064 0.13346635 0.028795565 0.0056896997
0.021319896 -0.010696088 0.17884204 0.09521174 0.043687712 0.09089855 0.103607915 0.051582634
0.006378144 -0.03580626 0.026306279 -0.0382077 0.034013044 0.023159873 0.013559953 -0.011043187
-0.02658803 0.053346686 -0.040219348 -0.06556421 -0.067786574 0.10988288 -0.054372627 -0.048593894
-0.052279573 -0.06179301 0.07662277 0.09636255 0.023373269 -0.105493054 0.033131752 0.01797723
0.027401747 0.013347559 -0.0049300347 -0.078026116 -0.12764533 0.11990172 0.059444387 -0.0056114364
-0.050646417 -0.11098846 0.11080965 0.12487827 0.040474765 0.004934911 -0.10582395 0.040831055
0.20523074 0.21558142 -0.013800457 -0.0710063 -0.051736154 0.013073723 0.06472726 0.1571696
-0.09843459 -0.054250754 -0.0275876 0.059628155 0.1427382 0.09526083 -0.023728432 -0.0067137727
0.059909135 0.065855816 0.119837075 0.02855729 0.012546308 0.05132661 -0.0030880505 -0.011950569
-0.00014191563 -0.016981259 -0.033890948 -0.1143998 0.040072877 0.030097505 0.07477414 -0.14086987
-0.15051168 -0.008388513 0.087484024 0.102942355 0.005020367 0.011290717 -0.0002964778 0.009972315
0.102616824 0.07967615 -0.042962693 -0.07092219 0.015096592 0.061806124 0.2165197 0.085671395
-0.078277044 -0.02019442 0.10236206 0.20402543 -0.032120667 -0.042230986 -0.019682769 -0.051942904
0.054461095 -0.012937393 0.01391756 -0.008534073 -0.011715702 0.043224387 0.098277435 0.09528829
-0.090302445 -0.07255139 -0.059066046 -0.03989053 0.05104828 -0.028314719 -0.19673887 -0.07179944
0.10625185 0.1356435 0.09066294 -0.003605234 0.014766086 0.079323776 0.14500742 0.18015738
0.107660085 -0.022284523 -0.017465495 0.098893516 0.03839876 0.024625497 -0.045923617 -0.0071123634
-0.0011950366 -0.061928134 -0.04953284 0.011698943 0.04198363 -0.11016688 -0.036759492 -0.080200635
0.009645323 0.1014262 0.13248107 0.0631462 -0.08105573 0.11241191 0.067615874 0.1506777
0.1286386 0.061582275 -0.1374667 -0.02580207 0.095779344 0.11451813 0.08514122 -0.0582566
-0.05479031 0.0043033944 0.03189609 -0.04320527 -0.009355516 0.05444129 0.061801545 -0.07008295
00000000: 3c2f 98bc 002d 013c 1067 033d 11fd 08bd
00000010: 13fd 9d3d ebbe dd3d 2b87 5d3d 8af3 833d
00000020: f26b bdbc 4739 02bd aedf 6d3c bfa4 1d3d
00000030: 32b9 3c3d 0bf1 a43c 45bb 02be 0b7f 89bd
00000040: 9e8a 143d b740 bd3d e18d 8b3c 6412 0dbe
00000050: 4f8e 38bd a661 ddbc 96e8 cc3d 82f0 ea3d
00000060: 904d b6bb ed7d 763d a9f2 5f3a c90e f23d
00000070: 46c1 133d 7a90 52bd 4038 ac3d 14df 823d
00000080: c38c 4e3e c9eb 1c3e bd94 073e 0a02 c7bd
00000090: 2d9c 573d 437c 1a3c 6f5e 833d 7df3 583b
000000a0: 4273 7dbd 3d88 d3bd 6a24 80bc 1330 0c3d
000000b0: 875c dbbd 2fc4 7d3c 4a02 3d3d 2aac 6a3b
000000c0: abec 02bd d9c9 9ebd 4bc6 fcbc 3ad0 f2bd
000000d0: 03c5 f5bd 267f f9bc c309 ce3d 1958 34bd
000000e0: b2e2 c0bd 3a5d 74bd 8e6d b53d 0763 1a3e
000000f0: ad81 263e 532b e83d b480 8d3d ceb8 d23c
00000100: 27c1 063e d65f 243e c500 9e3d d941 a93b
00000110: 106e 0ebd ba61 573d 643e 993d 6b0b a1bc
00000120: 9328 06bc bda7 8fbc 407d a0bc 4839 90bd
00000130: 86a2 c1bd db49 a0bd cc58 59bd 58f9 643d
00000140: dd0b 3b3e bec5 5ebd b261 d8bc c847 34bc
00000150: deb1 a03c 67ab 083e ade4 eb3c a970 ba3b
00000160: 10a7 ae3c a53e 2fbc 5e22 373e 5ffe c23d
00000170: e3f1 323d 0529 ba3d 6330 d43d 5048 533d
00000180: c0ff d03b 96a9 12bd 4480 d73c ad7f 1cbd
00000190: 4351 0b3d c6b9 bd3c 912a 5e3c 7cee 34bc
000001a0: 24cf d9bc 0e82 5a3d 0bbd 24bd 8746 86bd
000001b0: b0d3 8abd 460a e13d d5b5 5ebd 640a 47bd
000001c0: 1b23 56bd ab1a 7dbd 66ec 9c3d bb59 c53d
000001d0: 4c79 bf3c be0c d8bd 29b5 073d fc44 933c
000001e0: a179 e03c b8af 5a3c 218c a1bb 28cc 9fbd
000001f0: 75b5 02be 088f f53d f57b 733d 24e0 b7bb
00000200: 9e72 4fbd eb4d e3bd 2bf0 e23d 2ec0 ff3d
00000210: dec8 253d 09b5 a13b 3aba d8bd 773e 273d
00000220: 0228 523e 60c1 5c3e 501b 62bc c06b 91bd
00000230: 4ae9 53bd 2b33 563c ba8f 843d 11f1 203e
00000240: 1398 c9bd 0a36 5ebd 64ff e1bc a73c 743d
00000250: f629 123e 1c18 c33d 2162 c2bc 35ff dbbb
00000260: 4863 753d 6adf 863d 246d f53d faf0 e93c
00000270: 088f 4d3c da3b 523d e460 4abb 52cc 43bc
00000280: 30cf 14b9 481c 8bbc 3cd1 0abd 714a eabd
00000290: 7523 243d 0b8f f63c 2f23 993d 3140 10be
000002a0: bc1f 1abe f96f 09bc d32a b33d 71d3 d23d
000002b0: e481 a43b b3fc 383c 9470 9bb9 ec62 233c
000002c0: c528 d23d 402d a33d a6f9 2fbd a73f 91bd
000002d0: b257 773c 6b28 7d3d 57b7 5d3e 7c74 af3d
000002e0: b74f a0bd c56e a5bc 33a3 d13d 0bec 503e
000002f0: f690 03bd 66fa 2cbd c23d a1bc 15c2 54bd
00000300: 9912 5f3d 5cf7 53bc 7a06 643c 7fd2 0bbc
00000310: 37f3 3fbc 0e0c 313d ae45 c93d 8226 c33d
00000320: 7df0 b8bd d395 94bd 3def 71bd 4164 23bd
00000330: 0018 513d 45f4 e7bc ea75 49be 960b 93bd
00000340: 929a d93d 21e6 0a3e 7ead b93d ca45 6cbb
00000350: 74ed 713c 8174 a23d d37c 143e 2d7b 383e
00000360: e47c dc3d 088e b6bc cc13 8fbc af88 ca3d
00000370: 0548 1d3d 69bb c93c 671a 3cbd d40e e9bb
00000380: c6a2 9cba 5ba8 7dbd f2e2 4abd ecac 3f3c
00000390: 07f7 2b3d 2c9f e1bd 1f91 16bd 3b40 a4bd
000003a0: 6b07 1e3c 8ab8 cf3d 1ea9 073e cb52 813d
000003b0: 8c00 a6bd 3738 e63d 317a 8a3d 414b 1a3e
000003c0: d6b9 033e b23d 7c3d 12c4 0cbe dd5e d3bc
000003d0: f627 c43d 7b88 ea3d 855e ae3d 799e 6ebd
000003e0: ce6b 60bd 7d03 8d3b 79a5 023d 02f8 30bd
000003f0: e147 19bc d5fd 5e3d 9e23 7d3d a687 8fbd

model.9.bias f4 [64]
-0.11558836 -0.011600979 -0.061619706 -0.09719088 -0.07529296 -0.05286936 -0.10588422 0.0033940314
0.135954 -0.07034989 -0.045451805 -0.08150812 -0.1005934 0.06840547 0.132243 0.04821437
-0.060295273 -0.06945132 0.010503586 0.027813913 -0.08894702 -0.16257475 -0.053778436 0.031964444
-0.020839144 -0.042966224 -0.1224447 -0.05651605 -0.005328056 0.015734632 -0.08682188 0.012274232
0.0008019197 -0.012692044 -0.05224282 0.027712565 -0.06942882 -0.024068354 -0.09109582 -0.084466144
0.035180565 -0.060467187 -0.033721995 0.012646522 -0.1031556 0.081762075 0.03461065 -0.005301282
-0.09221686 -0.008199635 0.015574282 -0.002298551 -0.028704356 -0.09701207 -0.0046626977 -0.030384315
-0.050516516 0.047829714 -0.0049820864 -0.11332771 -0.009120054 -0.016993195 -0.1347996 -0.033002414
00000000: 97b9 ecbd 0812 3ebc f264 7cbd 030c c7bd
00000010: 3233 9abd 8b8d 58bd d3d9 d8bd 666e 5e3b
00000020: 8637 0b3e 9a13 90bd ac2b 3abd bbed a6bd
00000030: ea03 cebd 2b18 8c3d b66a 073e 6e7c 453d
00000040: 2df8 76bd 7e3c 8ebd 3c17 2c3c 01da e33c
00000050: db29 b6bd ff79 26be c746 5cbd 26ed 023d
00000060: dab6 aabc 5afd 2fbd 49c4 fabd 607d 67bd
00000070: f996 aebb eae5 803c abcf b1bd dc19 493c
00000080: ec37 523a 4af2 4fbc 91fc 55bd 7605 e33c
00000090: b230 8ebd ff2a c5bc 7290 babd 96fc acbd
000000a0: 7f19 103d 71ac 77bd 1320 0abd 5c33 4f3c
000000b0: 3e43 d3bd e072 a73d e6c3 0d3d 60b6 adbb
000000c0: 31dc bcbd c357 06bc 462b 7f3c 49a3 16bb
000000d0: 6625 ebbc 44ae c6bd 8bc9 98bb 87e8 f8bc
000000e0: 68ea 4ebd 17e9 433d c540 a3bb 5c18 e8bd
000000f0: 476c 15bc 5035 8bbc e808 0abe 8a2d 07bd

model.11.weight f4 [10, 64]
-0.14583625 0.08182108 0.21972789 0.08469037 -0.29109183 -0.34595928 -0.34188008 0.21774797
-0.13027751 -0.18585119 -0.06796516 0.15691955 -0.3549865 -0.0074603856 -0.10532774 -0.26936665
-0.09566965 -0.25337288 0.27572942 0.079389095 -0.23569547 -0.05202895 -0.32408604 0.24621284
0.19488142 -0.29948816 -0.3887385 -0.2742335 -0.27289897 -0.34070605 -0.3201395 -0.20737952
0.07522652 -0.30953225 -0.2416613 -0.009232388 0.05606528 -0.079353765 -0.046891175 -0.061807845
0.16176997 0.037904315 0.035508703 0.20537353 -0.27667582 0.087457106 -0.10228234 -0.16725786
-0.04631709 -0.3608826 -0.10012663 -0.117419995 -0.44479364 -0.13860795 -0.059457205 -0.39487275
-0.117049694 0.0059546195 -0.46796623 0.14167109 -0.27207792 0.1054432 -0.46133354 -0.27308014
-0.044112053 -0.37848547 -0.032754235 -0.16908218 -0.059057094 -0.35537556 0.07852035 -0.24744059
0.43998852 -0.12008129 0.04569923 -0.122038245 -0.17680533 0.08586982 0.027197015 0.17167008
-0.11253913 -0.12561968 0.10312389 -0.012263798 -0.33056486 -0.28364718 -0.0024116423 -0.084420234
-0.38200536 0.12644613 -0.25537378 -0.33803886 0.06695625 0.24622957 -0.36757144 -0.046544783
-0.29988736 0.24911965 -0.122582704 -0.53242916 -0.22835614 0.091656156 -0.39106283 -0.12839653
0.042578332 -0.27474824 -0.04972489 -0.25908896 0.19237071 0.14079937 -0.04136631 -0.1894161
-0.38164803 -0.08335112 -0.025856543 -0.13572365 -0.011605801 -0.40116683 -0.07066091 -0.090326615
-0.291915 0.1845665 0.08908743 -0.33768454 -0.15362357 -0.08195107 -0.16117288 -0.09322115
0.10131546 -0.16914928 -0.35358635 0.08906534 -0.10640288 -0.24663651 0.034602523 -0.18192457
-0.49312398 -0.3284973 -0.20532824 0.029609857 -0.30248654 -0.08478187 -0.48406136 -0.4226554
0.3444107 -0.17230302 0.11723317 0.063613534 -0.2306429 0.0046495562 -0.12552503 -0.34104836
-0.034249023 -0.009729348 0.17941606 0.07786582 0.022079116 0.11936185 -0.0985605 -0.07566298
-0.12843013 -0.19923523 -0.004166918 -0.029434828 -0.03321728 -0.0124631375 -0.26998127 0.12624726
-0.4288303 -0.007045403 0.03865856 0.057494722 0.022337219 -0.27092588 -0.051596206 -0.37771282
-0.11985932 -0.07232488 0.103946544 -0.42716476 -0.2038021 -0.00941332 -0.15486538 0.072625555
-0.092072934 -0.029774662 -0.29335496 0.019131862 -0.027549675 -0.086015165 0.022864036 -0.028428346
-0.42113855 -0.2484843 -0.00730656 0.031650744 0.20131563 0.039147444 -0.044605345 -0.31958592
-0.37560382 -0.10856724 0.017778555 -0.21804045 0.21365702 0.38741684 -0.40977734 -0.33673316
-0.42212206 -0.35552144 -0.046845358 -0.24019255 -0.31352788 0.10029522 -0.32504487 -0.3237793
0.0709653 -0.15268762 -0.17073685 -0.5503793 0.17296134 -0.22229238 -0.18280622 -0.083441794
-0.023362663 -0.2116181 0.0096883755 -0.030031243 -0.109900706 -0.006236525 -0.33692536 -0.10036603
-0.17979744 -0.32620373 0.03996591 -0.034568083 -0.110025406 -0.3469182 0.022477467 0.25984085
0.09796555 0.0372376 0.10096714 0.43617916 -0.38944 -0.41210142 -0.016191417 0.041670978
-0.49881798 -0.18364288 0.102965824 -0.045368932 -0.22723027 -0.011045679 0.06556793 0.064329684
00000000: 1956 15be cf91 a73d 5900 613e 2572 ad3d
00000010: fd09 95be 9321 b1be e80a afbe 53f9 5e3e
00000020: 7867 05be c64f 3ebe 5131 8bbd 85af 203e
00000030: cac0 b5be 4076 f4bb 12b6 d7bd 6dea 89be
00000040: 73ee c3bd 17ba 81be 682c 8d3e c096 a23d
00000050: 275a 71be 4f1c 55bd 9bee a5be 381f 7c3e
00000060: ff8e 473e 8356 99be bc08 c7be 5568 8cbe
00000070: 6ab9 8bbe 0671 aebe 53e9 a3be 4c5b 54be
00000080: 5d10 9a3d 037b 9ebe 0f76 77be 7143 17bc
00000090: b5a4 653d 3a84 a2bd f610 40bd 392a 7dbd
000000a0: 07a7 253e 8e41 1b3d 9371 113d 704d 523e
000000b0: 74a8 8dbe b61c b33d 6779 d1bd a545 2bbe
000000c0: fdb6 3dbd 9bc5 b8be 310f cdbd e579 f0bd
000000d0: febb e3be 3eef 0dbe 6689 73bd c32c cabe
000000e0: c0b7 efbd f81e c33b 4599 efbe 3a12 113e
000000f0: cc4d 8bbe 9bf2 d73d e933 ecbe 29d1 8bbe
00000100: d7ae 34bd d9c8 c1be 4e29 06bd e123 2dbe
00000110: dae5 71bd c9f3 b5be 47cf a03d 1161 7dbe
00000120: 2d46 e13e 2eed f5bd 1e2f 3b3d 30ef f9bd
00000130: 750c 35be 84dc af3d 46cc de3c 48ca 2f3e
00000140: ea7a e6bd 72a2 00be 9e32 d33d 19ee 48bc
00000150: cc3f a9be 343a 91be a50c 1ebb 84e4 acbd
00000160: 3596 c3be 187b 013e 5ac0 82be 6e13 adbe
00000170: 5c20 893d 9b23 7c3e 5332 bcbe bea5 3ebd
00000180: d68a 99be 3919 7f3e a40c fbbd 474d 08bf
00000190: 31d6 69be 39b6 bb3d 6339 c8be 617a 03be
000001a0: 9e66 2e3d cdab 8cbe 54ac 4bbd 4fa7 84be
000001b0: d4fc 443e b62d 103e b86f 29bd 4bf6 41be
000001c0: 5f67 c3be feb3 aabd 1ad1 d3bc 24fb 0abe
000001d0: 4226 3ebc bd65 cdbe abb6 90bd 29fd b8bd
000001e0: e275 95be 00ff 3c3e 7873 b63d fde4 acbe
000001f0: 7f4f 1dbe f6d5 a7bd 810a 25be bbea bebd
00000200: 7b7e cf3d 7835 2dbe 4509 b5be e467 b63d
00000210: c1e9 d9bd 488e 7cbe 60bb 0d3d 6f4a 3abe
00000220: bf7a fcbe cc30 a8be 9141 52be 5f90 f23c
00000230: 84df 9abe 1ea2 adbd e4d6 f7be 4a66 d8be
00000240: 9956 b03e 3470 30be f217 f03d d047 823d
00000250: a72d 6cbe 4e5b 983b a289 00be e49d aebe
00000260: b448 0cbd d867 1fbc d8b8 373e 1d78 9f3d
00000270: 43df b43c fc73 f43d 16da c9bd 31f5 9abd
00000280: 3083 03be 5204 4cbe a48a 88bb 4f21 f1bc
00000290: d80e 08bd 3032 4cbc fc3a 8abe f646 013e
000002a0: a58f dbbe 20dd e6bb 7058 1e3d 967f 6b3d
000002b0: 8bfc b63c ccb6 8abe 8b56 53bd 9363 c1be
000002c0: ce78 f5bd 111f 94bd ede1 d43d 57b5 dabe
000002d0: 7fb1 50be 533a 1abc 0895 1ebe b5bc 943d
000002e0: bc90 bcbd fee9 f3bc 9f32 96be 6cba 9c3c
000002f0: dbaf e1bc b828 b0bd 5c4d bb3c 90e2 e8bc
00000300: 799f d7be ab72 7ebe de6b efbb 36a4 013d
00000310: af25 4e3e 1259 203d 18b4 36bd c4a0 a3be
00000320: 254f c0be 8058 debd 55a4 913c ff45 5fbe
00000330: e8c8 5a3e 805b c63e 56ce d1be 4a68 acbe
00000340: 6220 d8be e806 b6be ebe0 3fbd 09f5 75be
00000350: ba86 a0be 9567 cd3d 486c a6be 67c6 a5be
00000360: 4156 913d 255a 1cbe a4d5 2ebe a8e5 0cbf
00000370: c71c 313e 9da0 63be 8e31 3bbe 88e3 aabd
00000380: 0e63 bfbc 6ab2 58be febb 1e3c 1504 f6bc
00000390: 9f13 e1bd c35b ccbb 7b81 acbe b58c cdbd
000003a0: d21c 38be 2d04 a7be 4bb3 233d 4397 0dbd
000003b0: 0055 e1bd 439f b1be aa22 b83c dc09 853e
000003c0: 2aa2 c83d 7486 183d dcc7 ce3d e052 df3e
000003d0: ae64 c7be f5fe d2be dda3 84bc 30af 2a3d
000003e0: 1265 ffbe e10c 3cbe bfdf d23d c6d4 39bd
000003f0: 0daf 68be f0f8 34bc 7b48 863d 48bf 833d

model.11.bias f4 [10]
0.09293253 0.014602563 -0.07219866 -0.19057319 -0.059549186 -0.10646221 -0.20147902 -0.18720101
0.043381378 -0.06482168
00000000: 6953 be3d 973f 6f3c e4dc 93bd 9e25 43be
00000010: d9e9 73bd dc08 dabd 8450 4ebe 9fb1 3fbe
00000020: acb0 313d 3bc1 84bd
